Model Size: 106632579
DataParallel(
  (module): NCSNpp(
    (act): SiLU()
    (all_modules): ModuleList(
      (0): Linear(in_features=128, out_features=512, bias=True)
      (1): Linear(in_features=512, out_features=512, bias=True)
      (2): Conv2d(3, 128, kernel_size=(3, 3), stride=(1, 1), padding=(1, 1))
      (3-10): 8 x ResnetBlockBigGANpp(
        (GroupNorm_0): GroupNorm(32, 128, eps=1e-06, affine=True)
        (Conv_0): Conv2d(128, 128, kernel_size=(3, 3), stride=(1, 1), padding=(1, 1))
        (Dense_0): Linear(in_features=512, out_features=128, bias=True)
        (GroupNorm_1): GroupNorm(32, 128, eps=1e-06, affine=True)
        (Dropout_0): Dropout(p=0.1, inplace=False)
        (Conv_1): Conv2d(128, 128, kernel_size=(3, 3), stride=(1, 1), padding=(1, 1))
        (act): SiLU()
      )
      (11): ResnetBlockBigGANpp(
        (GroupNorm_0): GroupNorm(32, 128, eps=1e-06, affine=True)
        (Conv_0): Conv2d(128, 128, kernel_size=(3, 3), stride=(1, 1), padding=(1, 1))
        (Dense_0): Linear(in_features=512, out_features=128, bias=True)
        (GroupNorm_1): GroupNorm(32, 128, eps=1e-06, affine=True)
        (Dropout_0): Dropout(p=0.1, inplace=False)
        (Conv_1): Conv2d(128, 128, kernel_size=(3, 3), stride=(1, 1), padding=(1, 1))
        (Conv_2): Conv2d(128, 128, kernel_size=(1, 1), stride=(1, 1))
        (act): SiLU()
      )
      (12): ResnetBlockBigGANpp(
        (GroupNorm_0): GroupNorm(32, 128, eps=1e-06, affine=True)
        (Conv_0): Conv2d(128, 256, kernel_size=(3, 3), stride=(1, 1), padding=(1, 1))
        (Dense_0): Linear(in_features=512, out_features=256, bias=True)
        (GroupNorm_1): GroupNorm(32, 256, eps=1e-06, affine=True)
        (Dropout_0): Dropout(p=0.1, inplace=False)
        (Conv_1): Conv2d(256, 256, kernel_size=(3, 3), stride=(1, 1), padding=(1, 1))
        (Conv_2): Conv2d(128, 256, kernel_size=(1, 1), stride=(1, 1))
        (act): SiLU()
      )
      (13): AttnBlockpp(
        (GroupNorm_0): GroupNorm(32, 256, eps=1e-06, affine=True)
        (NIN_0): NIN()
        (NIN_1): NIN()
        (NIN_2): NIN()
        (NIN_3): NIN()
      )
      (14): ResnetBlockBigGANpp(
        (GroupNorm_0): GroupNorm(32, 256, eps=1e-06, affine=True)
        (Conv_0): Conv2d(256, 256, kernel_size=(3, 3), stride=(1, 1), padding=(1, 1))
        (Dense_0): Linear(in_features=512, out_features=256, bias=True)
        (GroupNorm_1): GroupNorm(32, 256, eps=1e-06, affine=True)
        (Dropout_0): Dropout(p=0.1, inplace=False)
        (Conv_1): Conv2d(256, 256, kernel_size=(3, 3), stride=(1, 1), padding=(1, 1))
        (act): SiLU()
      )
      (15): AttnBlockpp(
        (GroupNorm_0): GroupNorm(32, 256, eps=1e-06, affine=True)
        (NIN_0): NIN()
        (NIN_1): NIN()
        (NIN_2): NIN()
        (NIN_3): NIN()
      )
      (16): ResnetBlockBigGANpp(
        (GroupNorm_0): GroupNorm(32, 256, eps=1e-06, affine=True)
        (Conv_0): Conv2d(256, 256, kernel_size=(3, 3), stride=(1, 1), padding=(1, 1))
        (Dense_0): Linear(in_features=512, out_features=256, bias=True)
        (GroupNorm_1): GroupNorm(32, 256, eps=1e-06, affine=True)
        (Dropout_0): Dropout(p=0.1, inplace=False)
        (Conv_1): Conv2d(256, 256, kernel_size=(3, 3), stride=(1, 1), padding=(1, 1))
        (act): SiLU()
      )
      (17): AttnBlockpp(
        (GroupNorm_0): GroupNorm(32, 256, eps=1e-06, affine=True)
        (NIN_0): NIN()
        (NIN_1): NIN()
        (NIN_2): NIN()
        (NIN_3): NIN()
      )
      (18): ResnetBlockBigGANpp(
        (GroupNorm_0): GroupNorm(32, 256, eps=1e-06, affine=True)
        (Conv_0): Conv2d(256, 256, kernel_size=(3, 3), stride=(1, 1), padding=(1, 1))
        (Dense_0): Linear(in_features=512, out_features=256, bias=True)
        (GroupNorm_1): GroupNorm(32, 256, eps=1e-06, affine=True)
        (Dropout_0): Dropout(p=0.1, inplace=False)
        (Conv_1): Conv2d(256, 256, kernel_size=(3, 3), stride=(1, 1), padding=(1, 1))
        (act): SiLU()
      )
      (19): AttnBlockpp(
        (GroupNorm_0): GroupNorm(32, 256, eps=1e-06, affine=True)
        (NIN_0): NIN()
        (NIN_1): NIN()
        (NIN_2): NIN()
        (NIN_3): NIN()
      )
      (20): ResnetBlockBigGANpp(
        (GroupNorm_0): GroupNorm(32, 256, eps=1e-06, affine=True)
        (Conv_0): Conv2d(256, 256, kernel_size=(3, 3), stride=(1, 1), padding=(1, 1))
        (Dense_0): Linear(in_features=512, out_features=256, bias=True)
        (GroupNorm_1): GroupNorm(32, 256, eps=1e-06, affine=True)
        (Dropout_0): Dropout(p=0.1, inplace=False)
        (Conv_1): Conv2d(256, 256, kernel_size=(3, 3), stride=(1, 1), padding=(1, 1))
        (act): SiLU()
      )
      (21): AttnBlockpp(
        (GroupNorm_0): GroupNorm(32, 256, eps=1e-06, affine=True)
        (NIN_0): NIN()
        (NIN_1): NIN()
        (NIN_2): NIN()
        (NIN_3): NIN()
      )
      (22): ResnetBlockBigGANpp(
        (GroupNorm_0): GroupNorm(32, 256, eps=1e-06, affine=True)
        (Conv_0): Conv2d(256, 256, kernel_size=(3, 3), stride=(1, 1), padding=(1, 1))
        (Dense_0): Linear(in_features=512, out_features=256, bias=True)
        (GroupNorm_1): GroupNorm(32, 256, eps=1e-06, affine=True)
        (Dropout_0): Dropout(p=0.1, inplace=False)
        (Conv_1): Conv2d(256, 256, kernel_size=(3, 3), stride=(1, 1), padding=(1, 1))
        (act): SiLU()
      )
      (23): AttnBlockpp(
        (GroupNorm_0): GroupNorm(32, 256, eps=1e-06, affine=True)
        (NIN_0): NIN()
        (NIN_1): NIN()
        (NIN_2): NIN()
        (NIN_3): NIN()
      )
      (24): ResnetBlockBigGANpp(
        (GroupNorm_0): GroupNorm(32, 256, eps=1e-06, affine=True)
        (Conv_0): Conv2d(256, 256, kernel_size=(3, 3), stride=(1, 1), padding=(1, 1))
        (Dense_0): Linear(in_features=512, out_features=256, bias=True)
        (GroupNorm_1): GroupNorm(32, 256, eps=1e-06, affine=True)
        (Dropout_0): Dropout(p=0.1, inplace=False)
        (Conv_1): Conv2d(256, 256, kernel_size=(3, 3), stride=(1, 1), padding=(1, 1))
        (act): SiLU()
      )
      (25): AttnBlockpp(
        (GroupNorm_0): GroupNorm(32, 256, eps=1e-06, affine=True)
        (NIN_0): NIN()
        (NIN_1): NIN()
        (NIN_2): NIN()
        (NIN_3): NIN()
      )
      (26): ResnetBlockBigGANpp(
        (GroupNorm_0): GroupNorm(32, 256, eps=1e-06, affine=True)
        (Conv_0): Conv2d(256, 256, kernel_size=(3, 3), stride=(1, 1), padding=(1, 1))
        (Dense_0): Linear(in_features=512, out_features=256, bias=True)
        (GroupNorm_1): GroupNorm(32, 256, eps=1e-06, affine=True)
        (Dropout_0): Dropout(p=0.1, inplace=False)
        (Conv_1): Conv2d(256, 256, kernel_size=(3, 3), stride=(1, 1), padding=(1, 1))
        (act): SiLU()
      )
      (27): AttnBlockpp(
        (GroupNorm_0): GroupNorm(32, 256, eps=1e-06, affine=True)
        (NIN_0): NIN()
        (NIN_1): NIN()
        (NIN_2): NIN()
        (NIN_3): NIN()
      )
      (28): ResnetBlockBigGANpp(
        (GroupNorm_0): GroupNorm(32, 256, eps=1e-06, affine=True)
        (Conv_0): Conv2d(256, 256, kernel_size=(3, 3), stride=(1, 1), padding=(1, 1))
        (Dense_0): Linear(in_features=512, out_features=256, bias=True)
        (GroupNorm_1): GroupNorm(32, 256, eps=1e-06, affine=True)
        (Dropout_0): Dropout(p=0.1, inplace=False)
        (Conv_1): Conv2d(256, 256, kernel_size=(3, 3), stride=(1, 1), padding=(1, 1))
        (Conv_2): Conv2d(256, 256, kernel_size=(1, 1), stride=(1, 1))
        (act): SiLU()
      )
      (29-36): 8 x ResnetBlockBigGANpp(
        (GroupNorm_0): GroupNorm(32, 256, eps=1e-06, affine=True)
        (Conv_0): Conv2d(256, 256, kernel_size=(3, 3), stride=(1, 1), padding=(1, 1))
        (Dense_0): Linear(in_features=512, out_features=256, bias=True)
        (GroupNorm_1): GroupNorm(32, 256, eps=1e-06, affine=True)
        (Dropout_0): Dropout(p=0.1, inplace=False)
        (Conv_1): Conv2d(256, 256, kernel_size=(3, 3), stride=(1, 1), padding=(1, 1))
        (act): SiLU()
      )
      (37): ResnetBlockBigGANpp(
        (GroupNorm_0): GroupNorm(32, 256, eps=1e-06, affine=True)
        (Conv_0): Conv2d(256, 256, kernel_size=(3, 3), stride=(1, 1), padding=(1, 1))
        (Dense_0): Linear(in_features=512, out_features=256, bias=True)
        (GroupNorm_1): GroupNorm(32, 256, eps=1e-06, affine=True)
        (Dropout_0): Dropout(p=0.1, inplace=False)
        (Conv_1): Conv2d(256, 256, kernel_size=(3, 3), stride=(1, 1), padding=(1, 1))
        (Conv_2): Conv2d(256, 256, kernel_size=(1, 1), stride=(1, 1))
        (act): SiLU()
      )
      (38-46): 9 x ResnetBlockBigGANpp(
        (GroupNorm_0): GroupNorm(32, 256, eps=1e-06, affine=True)
        (Conv_0): Conv2d(256, 256, kernel_size=(3, 3), stride=(1, 1), padding=(1, 1))
        (Dense_0): Linear(in_features=512, out_features=256, bias=True)
        (GroupNorm_1): GroupNorm(32, 256, eps=1e-06, affine=True)
        (Dropout_0): Dropout(p=0.1, inplace=False)
        (Conv_1): Conv2d(256, 256, kernel_size=(3, 3), stride=(1, 1), padding=(1, 1))
        (act): SiLU()
      )
      (47): AttnBlockpp(
        (GroupNorm_0): GroupNorm(32, 256, eps=1e-06, affine=True)
        (NIN_0): NIN()
        (NIN_1): NIN()
        (NIN_2): NIN()
        (NIN_3): NIN()
      )
      (48): ResnetBlockBigGANpp(
        (GroupNorm_0): GroupNorm(32, 256, eps=1e-06, affine=True)
        (Conv_0): Conv2d(256, 256, kernel_size=(3, 3), stride=(1, 1), padding=(1, 1))
        (Dense_0): Linear(in_features=512, out_features=256, bias=True)
        (GroupNorm_1): GroupNorm(32, 256, eps=1e-06, affine=True)
        (Dropout_0): Dropout(p=0.1, inplace=False)
        (Conv_1): Conv2d(256, 256, kernel_size=(3, 3), stride=(1, 1), padding=(1, 1))
        (act): SiLU()
      )
      (49-57): 9 x ResnetBlockBigGANpp(
        (GroupNorm_0): GroupNorm(32, 512, eps=1e-06, affine=True)
        (Conv_0): Conv2d(512, 256, kernel_size=(3, 3), stride=(1, 1), padding=(1, 1))
        (Dense_0): Linear(in_features=512, out_features=256, bias=True)
        (GroupNorm_1): GroupNorm(32, 256, eps=1e-06, affine=True)
        (Dropout_0): Dropout(p=0.1, inplace=False)
        (Conv_1): Conv2d(256, 256, kernel_size=(3, 3), stride=(1, 1), padding=(1, 1))
        (Conv_2): Conv2d(512, 256, kernel_size=(1, 1), stride=(1, 1))
        (act): SiLU()
      )
      (58): ResnetBlockBigGANpp(
        (GroupNorm_0): GroupNorm(32, 256, eps=1e-06, affine=True)
        (Conv_0): Conv2d(256, 256, kernel_size=(3, 3), stride=(1, 1), padding=(1, 1))
        (Dense_0): Linear(in_features=512, out_features=256, bias=True)
        (GroupNorm_1): GroupNorm(32, 256, eps=1e-06, affine=True)
        (Dropout_0): Dropout(p=0.1, inplace=False)
        (Conv_1): Conv2d(256, 256, kernel_size=(3, 3), stride=(1, 1), padding=(1, 1))
        (Conv_2): Conv2d(256, 256, kernel_size=(1, 1), stride=(1, 1))
        (act): SiLU()
      )
      (59-67): 9 x ResnetBlockBigGANpp(
        (GroupNorm_0): GroupNorm(32, 512, eps=1e-06, affine=True)
        (Conv_0): Conv2d(512, 256, kernel_size=(3, 3), stride=(1, 1), padding=(1, 1))
        (Dense_0): Linear(in_features=512, out_features=256, bias=True)
        (GroupNorm_1): GroupNorm(32, 256, eps=1e-06, affine=True)
        (Dropout_0): Dropout(p=0.1, inplace=False)
        (Conv_1): Conv2d(256, 256, kernel_size=(3, 3), stride=(1, 1), padding=(1, 1))
        (Conv_2): Conv2d(512, 256, kernel_size=(1, 1), stride=(1, 1))
        (act): SiLU()
      )
      (68): ResnetBlockBigGANpp(
        (GroupNorm_0): GroupNorm(32, 256, eps=1e-06, affine=True)
        (Conv_0): Conv2d(256, 256, kernel_size=(3, 3), stride=(1, 1), padding=(1, 1))
        (Dense_0): Linear(in_features=512, out_features=256, bias=True)
        (GroupNorm_1): GroupNorm(32, 256, eps=1e-06, affine=True)
        (Dropout_0): Dropout(p=0.1, inplace=False)
        (Conv_1): Conv2d(256, 256, kernel_size=(3, 3), stride=(1, 1), padding=(1, 1))
        (Conv_2): Conv2d(256, 256, kernel_size=(1, 1), stride=(1, 1))
        (act): SiLU()
      )
      (69-76): 8 x ResnetBlockBigGANpp(
        (GroupNorm_0): GroupNorm(32, 512, eps=1e-06, affine=True)
        (Conv_0): Conv2d(512, 256, kernel_size=(3, 3), stride=(1, 1), padding=(1, 1))
        (Dense_0): Linear(in_features=512, out_features=256, bias=True)
        (GroupNorm_1): GroupNorm(32, 256, eps=1e-06, affine=True)
        (Dropout_0): Dropout(p=0.1, inplace=False)
        (Conv_1): Conv2d(256, 256, kernel_size=(3, 3), stride=(1, 1), padding=(1, 1))
        (Conv_2): Conv2d(512, 256, kernel_size=(1, 1), stride=(1, 1))
        (act): SiLU()
      )
      (77): ResnetBlockBigGANpp(
        (GroupNorm_0): GroupNorm(32, 384, eps=1e-06, affine=True)
        (Conv_0): Conv2d(384, 256, kernel_size=(3, 3), stride=(1, 1), padding=(1, 1))
        (Dense_0): Linear(in_features=512, out_features=256, bias=True)
        (GroupNorm_1): GroupNorm(32, 256, eps=1e-06, affine=True)
        (Dropout_0): Dropout(p=0.1, inplace=False)
        (Conv_1): Conv2d(256, 256, kernel_size=(3, 3), stride=(1, 1), padding=(1, 1))
        (Conv_2): Conv2d(384, 256, kernel_size=(1, 1), stride=(1, 1))
        (act): SiLU()
      )
      (78): AttnBlockpp(
        (GroupNorm_0): GroupNorm(32, 256, eps=1e-06, affine=True)
        (NIN_0): NIN()
        (NIN_1): NIN()
        (NIN_2): NIN()
        (NIN_3): NIN()
      )
      (79): ResnetBlockBigGANpp(
        (GroupNorm_0): GroupNorm(32, 256, eps=1e-06, affine=True)
        (Conv_0): Conv2d(256, 256, kernel_size=(3, 3), stride=(1, 1), padding=(1, 1))
        (Dense_0): Linear(in_features=512, out_features=256, bias=True)
        (GroupNorm_1): GroupNorm(32, 256, eps=1e-06, affine=True)
        (Dropout_0): Dropout(p=0.1, inplace=False)
        (Conv_1): Conv2d(256, 256, kernel_size=(3, 3), stride=(1, 1), padding=(1, 1))
        (Conv_2): Conv2d(256, 256, kernel_size=(1, 1), stride=(1, 1))
        (act): SiLU()
      )
      (80): ResnetBlockBigGANpp(
        (GroupNorm_0): GroupNorm(32, 384, eps=1e-06, affine=True)
        (Conv_0): Conv2d(384, 128, kernel_size=(3, 3), stride=(1, 1), padding=(1, 1))
        (Dense_0): Linear(in_features=512, out_features=128, bias=True)
        (GroupNorm_1): GroupNorm(32, 128, eps=1e-06, affine=True)
        (Dropout_0): Dropout(p=0.1, inplace=False)
        (Conv_1): Conv2d(128, 128, kernel_size=(3, 3), stride=(1, 1), padding=(1, 1))
        (Conv_2): Conv2d(384, 128, kernel_size=(1, 1), stride=(1, 1))
        (act): SiLU()
      )
      (81-88): 8 x ResnetBlockBigGANpp(
        (GroupNorm_0): GroupNorm(32, 256, eps=1e-06, affine=True)
        (Conv_0): Conv2d(256, 128, kernel_size=(3, 3), stride=(1, 1), padding=(1, 1))
        (Dense_0): Linear(in_features=512, out_features=128, bias=True)
        (GroupNorm_1): GroupNorm(32, 128, eps=1e-06, affine=True)
        (Dropout_0): Dropout(p=0.1, inplace=False)
        (Conv_1): Conv2d(128, 128, kernel_size=(3, 3), stride=(1, 1), padding=(1, 1))
        (Conv_2): Conv2d(256, 128, kernel_size=(1, 1), stride=(1, 1))
        (act): SiLU()
      )
      (89): GroupNorm(32, 128, eps=1e-06, affine=True)
      (90): Conv2d(128, 3, kernel_size=(3, 3), stride=(1, 1), padding=(1, 1))
    )
  )
)