Model Size: 105785880
DataParallel(
  (module): NCSNpp(
    (act): SiLU()
    (pyramid_upsample): Upsample()
    (pyramid_downsample): Downsample()
    (all_modules): ModuleList(
      (0): GaussianFourierProjection()
      (1): Linear(in_features=32, out_features=64, bias=True)
      (2): Linear(in_features=64, out_features=64, bias=True)
      (3): Conv2d(3, 16, kernel_size=(3, 3), stride=(1, 1), padding=(1, 1))
      (4): ResnetBlockBigGANpp(
        (GroupNorm_0): GroupNorm(4, 16, eps=1e-06, affine=True)
        (Conv_0): Conv2d(16, 16, kernel_size=(3, 3), stride=(1, 1), padding=(1, 1))
        (Dense_0): Linear(in_features=64, out_features=16, bias=True)
        (GroupNorm_1): GroupNorm(4, 16, eps=1e-06, affine=True)
        (Dropout_0): Dropout(p=0.0, inplace=False)
        (Conv_1): Conv2d(16, 16, kernel_size=(3, 3), stride=(1, 1), padding=(1, 1))
        (act): SiLU()
      )
      (5): ResnetBlockBigGANpp(
        (GroupNorm_0): GroupNorm(4, 16, eps=1e-06, affine=True)
        (Conv_0): Conv2d(16, 16, kernel_size=(3, 3), stride=(1, 1), padding=(1, 1))
        (Dense_0): Linear(in_features=64, out_features=16, bias=True)
        (GroupNorm_1): GroupNorm(4, 16, eps=1e-06, affine=True)
        (Dropout_0): Dropout(p=0.0, inplace=False)
        (Conv_1): Conv2d(16, 16, kernel_size=(3, 3), stride=(1, 1), padding=(1, 1))
        (Conv_2): Conv2d(16, 16, kernel_size=(1, 1), stride=(1, 1))
        (act): SiLU()
      )
      (6): Combine(
        (Conv_0): Conv2d(3, 16, kernel_size=(1, 1), stride=(1, 1))
      )
      (7): ResnetBlockBigGANpp(
        (GroupNorm_0): GroupNorm(4, 16, eps=1e-06, affine=True)
        (Conv_0): Conv2d(16, 32, kernel_size=(3, 3), stride=(1, 1), padding=(1, 1))
        (Dense_0): Linear(in_features=64, out_features=32, bias=True)
        (GroupNorm_1): GroupNorm(8, 32, eps=1e-06, affine=True)
        (Dropout_0): Dropout(p=0.0, inplace=False)
        (Conv_1): Conv2d(32, 32, kernel_size=(3, 3), stride=(1, 1), padding=(1, 1))
        (Conv_2): Conv2d(16, 32, kernel_size=(1, 1), stride=(1, 1))
        (act): SiLU()
      )
      (8): ResnetBlockBigGANpp(
        (GroupNorm_0): GroupNorm(8, 32, eps=1e-06, affine=True)
        (Conv_0): Conv2d(32, 32, kernel_size=(3, 3), stride=(1, 1), padding=(1, 1))
        (Dense_0): Linear(in_features=64, out_features=32, bias=True)
        (GroupNorm_1): GroupNorm(8, 32, eps=1e-06, affine=True)
        (Dropout_0): Dropout(p=0.0, inplace=False)
        (Conv_1): Conv2d(32, 32, kernel_size=(3, 3), stride=(1, 1), padding=(1, 1))
        (Conv_2): Conv2d(32, 32, kernel_size=(1, 1), stride=(1, 1))
        (act): SiLU()
      )
      (9): Combine(
        (Conv_0): Conv2d(3, 32, kernel_size=(1, 1), stride=(1, 1))
      )
      (10): ResnetBlockBigGANpp(
        (GroupNorm_0): GroupNorm(8, 32, eps=1e-06, affine=True)
        (Conv_0): Conv2d(32, 64, kernel_size=(3, 3), stride=(1, 1), padding=(1, 1))
        (Dense_0): Linear(in_features=64, out_features=64, bias=True)
        (GroupNorm_1): GroupNorm(16, 64, eps=1e-06, affine=True)
        (Dropout_0): Dropout(p=0.0, inplace=False)
        (Conv_1): Conv2d(64, 64, kernel_size=(3, 3), stride=(1, 1), padding=(1, 1))
        (Conv_2): Conv2d(32, 64, kernel_size=(1, 1), stride=(1, 1))
        (act): SiLU()
      )
      (11): ResnetBlockBigGANpp(
        (GroupNorm_0): GroupNorm(16, 64, eps=1e-06, affine=True)
        (Conv_0): Conv2d(64, 64, kernel_size=(3, 3), stride=(1, 1), padding=(1, 1))
        (Dense_0): Linear(in_features=64, out_features=64, bias=True)
        (GroupNorm_1): GroupNorm(16, 64, eps=1e-06, affine=True)
        (Dropout_0): Dropout(p=0.0, inplace=False)
        (Conv_1): Conv2d(64, 64, kernel_size=(3, 3), stride=(1, 1), padding=(1, 1))
        (Conv_2): Conv2d(64, 64, kernel_size=(1, 1), stride=(1, 1))
        (act): SiLU()
      )
      (12): Combine(
        (Conv_0): Conv2d(3, 64, kernel_size=(1, 1), stride=(1, 1))
      )
      (13): ResnetBlockBigGANpp(
        (GroupNorm_0): GroupNorm(16, 64, eps=1e-06, affine=True)
        (Conv_0): Conv2d(64, 128, kernel_size=(3, 3), stride=(1, 1), padding=(1, 1))
        (Dense_0): Linear(in_features=64, out_features=128, bias=True)
        (GroupNorm_1): GroupNorm(32, 128, eps=1e-06, affine=True)
        (Dropout_0): Dropout(p=0.0, inplace=False)
        (Conv_1): Conv2d(128, 128, kernel_size=(3, 3), stride=(1, 1), padding=(1, 1))
        (Conv_2): Conv2d(64, 128, kernel_size=(1, 1), stride=(1, 1))
        (act): SiLU()
      )
      (14): ResnetBlockBigGANpp(
        (GroupNorm_0): GroupNorm(32, 128, eps=1e-06, affine=True)
        (Conv_0): Conv2d(128, 128, kernel_size=(3, 3), stride=(1, 1), padding=(1, 1))
        (Dense_0): Linear(in_features=64, out_features=128, bias=True)
        (GroupNorm_1): GroupNorm(32, 128, eps=1e-06, affine=True)
        (Dropout_0): Dropout(p=0.0, inplace=False)
        (Conv_1): Conv2d(128, 128, kernel_size=(3, 3), stride=(1, 1), padding=(1, 1))
        (Conv_2): Conv2d(128, 128, kernel_size=(1, 1), stride=(1, 1))
        (act): SiLU()
      )
      (15): Combine(
        (Conv_0): Conv2d(3, 128, kernel_size=(1, 1), stride=(1, 1))
      )
      (16): ResnetBlockBigGANpp(
        (GroupNorm_0): GroupNorm(32, 128, eps=1e-06, affine=True)
        (Conv_0): Conv2d(128, 256, kernel_size=(3, 3), stride=(1, 1), padding=(1, 1))
        (Dense_0): Linear(in_features=64, out_features=256, bias=True)
        (GroupNorm_1): GroupNorm(32, 256, eps=1e-06, affine=True)
        (Dropout_0): Dropout(p=0.0, inplace=False)
        (Conv_1): Conv2d(256, 256, kernel_size=(3, 3), stride=(1, 1), padding=(1, 1))
        (Conv_2): Conv2d(128, 256, kernel_size=(1, 1), stride=(1, 1))
        (act): SiLU()
      )
      (17): ResnetBlockBigGANpp(
        (GroupNorm_0): GroupNorm(32, 256, eps=1e-06, affine=True)
        (Conv_0): Conv2d(256, 256, kernel_size=(3, 3), stride=(1, 1), padding=(1, 1))
        (Dense_0): Linear(in_features=64, out_features=256, bias=True)
        (GroupNorm_1): GroupNorm(32, 256, eps=1e-06, affine=True)
        (Dropout_0): Dropout(p=0.0, inplace=False)
        (Conv_1): Conv2d(256, 256, kernel_size=(3, 3), stride=(1, 1), padding=(1, 1))
        (Conv_2): Conv2d(256, 256, kernel_size=(1, 1), stride=(1, 1))
        (act): SiLU()
      )
      (18): Combine(
        (Conv_0): Conv2d(3, 256, kernel_size=(1, 1), stride=(1, 1))
      )
      (19): ResnetBlockBigGANpp(
        (GroupNorm_0): GroupNorm(32, 256, eps=1e-06, affine=True)
        (Conv_0): Conv2d(256, 512, kernel_size=(3, 3), stride=(1, 1), padding=(1, 1))
        (Dense_0): Linear(in_features=64, out_features=512, bias=True)
        (GroupNorm_1): GroupNorm(32, 512, eps=1e-06, affine=True)
        (Dropout_0): Dropout(p=0.0, inplace=False)
        (Conv_1): Conv2d(512, 512, kernel_size=(3, 3), stride=(1, 1), padding=(1, 1))
        (Conv_2): Conv2d(256, 512, kernel_size=(1, 1), stride=(1, 1))
        (act): SiLU()
      )
      (20): ResnetBlockBigGANpp(
        (GroupNorm_0): GroupNorm(32, 512, eps=1e-06, affine=True)
        (Conv_0): Conv2d(512, 512, kernel_size=(3, 3), stride=(1, 1), padding=(1, 1))
        (Dense_0): Linear(in_features=64, out_features=512, bias=True)
        (GroupNorm_1): GroupNorm(32, 512, eps=1e-06, affine=True)
        (Dropout_0): Dropout(p=0.0, inplace=False)
        (Conv_1): Conv2d(512, 512, kernel_size=(3, 3), stride=(1, 1), padding=(1, 1))
        (Conv_2): Conv2d(512, 512, kernel_size=(1, 1), stride=(1, 1))
        (act): SiLU()
      )
      (21): Combine(
        (Conv_0): Conv2d(3, 512, kernel_size=(1, 1), stride=(1, 1))
      )
      (22): ResnetBlockBigGANpp(
        (GroupNorm_0): GroupNorm(32, 512, eps=1e-06, affine=True)
        (Conv_0): Conv2d(512, 512, kernel_size=(3, 3), stride=(1, 1), padding=(1, 1))
        (Dense_0): Linear(in_features=64, out_features=512, bias=True)
        (GroupNorm_1): GroupNorm(32, 512, eps=1e-06, affine=True)
        (Dropout_0): Dropout(p=0.0, inplace=False)
        (Conv_1): Conv2d(512, 512, kernel_size=(3, 3), stride=(1, 1), padding=(1, 1))
        (act): SiLU()
      )
      (23): AttnBlockpp(
        (GroupNorm_0): GroupNorm(32, 512, eps=1e-06, affine=True)
        (NIN_0): NIN()
        (NIN_1): NIN()
        (NIN_2): NIN()
        (NIN_3): NIN()
      )
      (24): ResnetBlockBigGANpp(
        (GroupNorm_0): GroupNorm(32, 512, eps=1e-06, affine=True)
        (Conv_0): Conv2d(512, 512, kernel_size=(3, 3), stride=(1, 1), padding=(1, 1))
        (Dense_0): Linear(in_features=64, out_features=512, bias=True)
        (GroupNorm_1): GroupNorm(32, 512, eps=1e-06, affine=True)
        (Dropout_0): Dropout(p=0.0, inplace=False)
        (Conv_1): Conv2d(512, 512, kernel_size=(3, 3), stride=(1, 1), padding=(1, 1))
        (Conv_2): Conv2d(512, 512, kernel_size=(1, 1), stride=(1, 1))
        (act): SiLU()
      )
      (25): Combine(
        (Conv_0): Conv2d(3, 512, kernel_size=(1, 1), stride=(1, 1))
      )
      (26-27): 2 x ResnetBlockBigGANpp(
        (GroupNorm_0): GroupNorm(32, 512, eps=1e-06, affine=True)
        (Conv_0): Conv2d(512, 512, kernel_size=(3, 3), stride=(1, 1), padding=(1, 1))
        (Dense_0): Linear(in_features=64, out_features=512, bias=True)
        (GroupNorm_1): GroupNorm(32, 512, eps=1e-06, affine=True)
        (Dropout_0): Dropout(p=0.0, inplace=False)
        (Conv_1): Conv2d(512, 512, kernel_size=(3, 3), stride=(1, 1), padding=(1, 1))
        (act): SiLU()
      )
      (28): AttnBlockpp(
        (GroupNorm_0): GroupNorm(32, 512, eps=1e-06, affine=True)
        (NIN_0): NIN()
        (NIN_1): NIN()
        (NIN_2): NIN()
        (NIN_3): NIN()
      )
      (29): ResnetBlockBigGANpp(
        (GroupNorm_0): GroupNorm(32, 512, eps=1e-06, affine=True)
        (Conv_0): Conv2d(512, 512, kernel_size=(3, 3), stride=(1, 1), padding=(1, 1))
        (Dense_0): Linear(in_features=64, out_features=512, bias=True)
        (GroupNorm_1): GroupNorm(32, 512, eps=1e-06, affine=True)
        (Dropout_0): Dropout(p=0.0, inplace=False)
        (Conv_1): Conv2d(512, 512, kernel_size=(3, 3), stride=(1, 1), padding=(1, 1))
        (act): SiLU()
      )
      (30-31): 2 x ResnetBlockBigGANpp(
        (GroupNorm_0): GroupNorm(32, 1024, eps=1e-06, affine=True)
        (Conv_0): Conv2d(1024, 512, kernel_size=(3, 3), stride=(1, 1), padding=(1, 1))
        (Dense_0): Linear(in_features=64, out_features=512, bias=True)
        (GroupNorm_1): GroupNorm(32, 512, eps=1e-06, affine=True)
        (Dropout_0): Dropout(p=0.0, inplace=False)
        (Conv_1): Conv2d(512, 512, kernel_size=(3, 3), stride=(1, 1), padding=(1, 1))
        (Conv_2): Conv2d(1024, 512, kernel_size=(1, 1), stride=(1, 1))
        (act): SiLU()
      )
      (32): GroupNorm(32, 512, eps=1e-06, affine=True)
      (33): Conv2d(512, 3, kernel_size=(3, 3), stride=(1, 1), padding=(1, 1))
      (34): ResnetBlockBigGANpp(
        (GroupNorm_0): GroupNorm(32, 512, eps=1e-06, affine=True)
        (Conv_0): Conv2d(512, 512, kernel_size=(3, 3), stride=(1, 1), padding=(1, 1))
        (Dense_0): Linear(in_features=64, out_features=512, bias=True)
        (GroupNorm_1): GroupNorm(32, 512, eps=1e-06, affine=True)
        (Dropout_0): Dropout(p=0.0, inplace=False)
        (Conv_1): Conv2d(512, 512, kernel_size=(3, 3), stride=(1, 1), padding=(1, 1))
        (Conv_2): Conv2d(512, 512, kernel_size=(1, 1), stride=(1, 1))
        (act): SiLU()
      )
      (35-36): 2 x ResnetBlockBigGANpp(
        (GroupNorm_0): GroupNorm(32, 1024, eps=1e-06, affine=True)
        (Conv_0): Conv2d(1024, 512, kernel_size=(3, 3), stride=(1, 1), padding=(1, 1))
        (Dense_0): Linear(in_features=64, out_features=512, bias=True)
        (GroupNorm_1): GroupNorm(32, 512, eps=1e-06, affine=True)
        (Dropout_0): Dropout(p=0.0, inplace=False)
        (Conv_1): Conv2d(512, 512, kernel_size=(3, 3), stride=(1, 1), padding=(1, 1))
        (Conv_2): Conv2d(1024, 512, kernel_size=(1, 1), stride=(1, 1))
        (act): SiLU()
      )
      (37): AttnBlockpp(
        (GroupNorm_0): GroupNorm(32, 512, eps=1e-06, affine=True)
        (NIN_0): NIN()
        (NIN_1): NIN()
        (NIN_2): NIN()
        (NIN_3): NIN()
      )
      (38): GroupNorm(32, 512, eps=1e-06, affine=True)
      (39): Conv2d(512, 3, kernel_size=(3, 3), stride=(1, 1), padding=(1, 1))
      (40): ResnetBlockBigGANpp(
        (GroupNorm_0): GroupNorm(32, 512, eps=1e-06, affine=True)
        (Conv_0): Conv2d(512, 512, kernel_size=(3, 3), stride=(1, 1), padding=(1, 1))
        (Dense_0): Linear(in_features=64, out_features=512, bias=True)
        (GroupNorm_1): GroupNorm(32, 512, eps=1e-06, affine=True)
        (Dropout_0): Dropout(p=0.0, inplace=False)
        (Conv_1): Conv2d(512, 512, kernel_size=(3, 3), stride=(1, 1), padding=(1, 1))
        (Conv_2): Conv2d(512, 512, kernel_size=(1, 1), stride=(1, 1))
        (act): SiLU()
      )
      (41): ResnetBlockBigGANpp(
        (GroupNorm_0): GroupNorm(32, 1024, eps=1e-06, affine=True)
        (Conv_0): Conv2d(1024, 512, kernel_size=(3, 3), stride=(1, 1), padding=(1, 1))
        (Dense_0): Linear(in_features=64, out_features=512, bias=True)
        (GroupNorm_1): GroupNorm(32, 512, eps=1e-06, affine=True)
        (Dropout_0): Dropout(p=0.0, inplace=False)
        (Conv_1): Conv2d(512, 512, kernel_size=(3, 3), stride=(1, 1), padding=(1, 1))
        (Conv_2): Conv2d(1024, 512, kernel_size=(1, 1), stride=(1, 1))
        (act): SiLU()
      )
      (42): ResnetBlockBigGANpp(
        (GroupNorm_0): GroupNorm(32, 768, eps=1e-06, affine=True)
        (Conv_0): Conv2d(768, 512, kernel_size=(3, 3), stride=(1, 1), padding=(1, 1))
        (Dense_0): Linear(in_features=64, out_features=512, bias=True)
        (GroupNorm_1): GroupNorm(32, 512, eps=1e-06, affine=True)
        (Dropout_0): Dropout(p=0.0, inplace=False)
        (Conv_1): Conv2d(512, 512, kernel_size=(3, 3), stride=(1, 1), padding=(1, 1))
        (Conv_2): Conv2d(768, 512, kernel_size=(1, 1), stride=(1, 1))
        (act): SiLU()
      )
      (43): GroupNorm(32, 512, eps=1e-06, affine=True)
      (44): Conv2d(512, 3, kernel_size=(3, 3), stride=(1, 1), padding=(1, 1))
      (45): ResnetBlockBigGANpp(
        (GroupNorm_0): GroupNorm(32, 512, eps=1e-06, affine=True)
        (Conv_0): Conv2d(512, 512, kernel_size=(3, 3), stride=(1, 1), padding=(1, 1))
        (Dense_0): Linear(in_features=64, out_features=512, bias=True)
        (GroupNorm_1): GroupNorm(32, 512, eps=1e-06, affine=True)
        (Dropout_0): Dropout(p=0.0, inplace=False)
        (Conv_1): Conv2d(512, 512, kernel_size=(3, 3), stride=(1, 1), padding=(1, 1))
        (Conv_2): Conv2d(512, 512, kernel_size=(1, 1), stride=(1, 1))
        (act): SiLU()
      )
      (46): ResnetBlockBigGANpp(
        (GroupNorm_0): GroupNorm(32, 768, eps=1e-06, affine=True)
        (Conv_0): Conv2d(768, 256, kernel_size=(3, 3), stride=(1, 1), padding=(1, 1))
        (Dense_0): Linear(in_features=64, out_features=256, bias=True)
        (GroupNorm_1): GroupNorm(32, 256, eps=1e-06, affine=True)
        (Dropout_0): Dropout(p=0.0, inplace=False)
        (Conv_1): Conv2d(256, 256, kernel_size=(3, 3), stride=(1, 1), padding=(1, 1))
        (Conv_2): Conv2d(768, 256, kernel_size=(1, 1), stride=(1, 1))
        (act): SiLU()
      )
      (47): ResnetBlockBigGANpp(
        (GroupNorm_0): GroupNorm(32, 384, eps=1e-06, affine=True)
        (Conv_0): Conv2d(384, 256, kernel_size=(3, 3), stride=(1, 1), padding=(1, 1))
        (Dense_0): Linear(in_features=64, out_features=256, bias=True)
        (GroupNorm_1): GroupNorm(32, 256, eps=1e-06, affine=True)
        (Dropout_0): Dropout(p=0.0, inplace=False)
        (Conv_1): Conv2d(256, 256, kernel_size=(3, 3), stride=(1, 1), padding=(1, 1))
        (Conv_2): Conv2d(384, 256, kernel_size=(1, 1), stride=(1, 1))
        (act): SiLU()
      )
      (48): GroupNorm(32, 256, eps=1e-06, affine=True)
      (49): Conv2d(256, 3, kernel_size=(3, 3), stride=(1, 1), padding=(1, 1))
      (50): ResnetBlockBigGANpp(
        (GroupNorm_0): GroupNorm(32, 256, eps=1e-06, affine=True)
        (Conv_0): Conv2d(256, 256, kernel_size=(3, 3), stride=(1, 1), padding=(1, 1))
        (Dense_0): Linear(in_features=64, out_features=256, bias=True)
        (GroupNorm_1): GroupNorm(32, 256, eps=1e-06, affine=True)
        (Dropout_0): Dropout(p=0.0, inplace=False)
        (Conv_1): Conv2d(256, 256, kernel_size=(3, 3), stride=(1, 1), padding=(1, 1))
        (Conv_2): Conv2d(256, 256, kernel_size=(1, 1), stride=(1, 1))
        (act): SiLU()
      )
      (51): ResnetBlockBigGANpp(
        (GroupNorm_0): GroupNorm(32, 384, eps=1e-06, affine=True)
        (Conv_0): Conv2d(384, 128, kernel_size=(3, 3), stride=(1, 1), padding=(1, 1))
        (Dense_0): Linear(in_features=64, out_features=128, bias=True)
        (GroupNorm_1): GroupNorm(32, 128, eps=1e-06, affine=True)
        (Dropout_0): Dropout(p=0.0, inplace=False)
        (Conv_1): Conv2d(128, 128, kernel_size=(3, 3), stride=(1, 1), padding=(1, 1))
        (Conv_2): Conv2d(384, 128, kernel_size=(1, 1), stride=(1, 1))
        (act): SiLU()
      )
      (52): ResnetBlockBigGANpp(
        (GroupNorm_0): GroupNorm(32, 192, eps=1e-06, affine=True)
        (Conv_0): Conv2d(192, 128, kernel_size=(3, 3), stride=(1, 1), padding=(1, 1))
        (Dense_0): Linear(in_features=64, out_features=128, bias=True)
        (GroupNorm_1): GroupNorm(32, 128, eps=1e-06, affine=True)
        (Dropout_0): Dropout(p=0.0, inplace=False)
        (Conv_1): Conv2d(128, 128, kernel_size=(3, 3), stride=(1, 1), padding=(1, 1))
        (Conv_2): Conv2d(192, 128, kernel_size=(1, 1), stride=(1, 1))
        (act): SiLU()
      )
      (53): GroupNorm(32, 128, eps=1e-06, affine=True)
      (54): Conv2d(128, 3, kernel_size=(3, 3), stride=(1, 1), padding=(1, 1))
      (55): ResnetBlockBigGANpp(
        (GroupNorm_0): GroupNorm(32, 128, eps=1e-06, affine=True)
        (Conv_0): Conv2d(128, 128, kernel_size=(3, 3), stride=(1, 1), padding=(1, 1))
        (Dense_0): Linear(in_features=64, out_features=128, bias=True)
        (GroupNorm_1): GroupNorm(32, 128, eps=1e-06, affine=True)
        (Dropout_0): Dropout(p=0.0, inplace=False)
        (Conv_1): Conv2d(128, 128, kernel_size=(3, 3), stride=(1, 1), padding=(1, 1))
        (Conv_2): Conv2d(128, 128, kernel_size=(1, 1), stride=(1, 1))
        (act): SiLU()
      )
      (56): ResnetBlockBigGANpp(
        (GroupNorm_0): GroupNorm(32, 192, eps=1e-06, affine=True)
        (Conv_0): Conv2d(192, 64, kernel_size=(3, 3), stride=(1, 1), padding=(1, 1))
        (Dense_0): Linear(in_features=64, out_features=64, bias=True)
        (GroupNorm_1): GroupNorm(16, 64, eps=1e-06, affine=True)
        (Dropout_0): Dropout(p=0.0, inplace=False)
        (Conv_1): Conv2d(64, 64, kernel_size=(3, 3), stride=(1, 1), padding=(1, 1))
        (Conv_2): Conv2d(192, 64, kernel_size=(1, 1), stride=(1, 1))
        (act): SiLU()
      )
      (57): ResnetBlockBigGANpp(
        (GroupNorm_0): GroupNorm(24, 96, eps=1e-06, affine=True)
        (Conv_0): Conv2d(96, 64, kernel_size=(3, 3), stride=(1, 1), padding=(1, 1))
        (Dense_0): Linear(in_features=64, out_features=64, bias=True)
        (GroupNorm_1): GroupNorm(16, 64, eps=1e-06, affine=True)
        (Dropout_0): Dropout(p=0.0, inplace=False)
        (Conv_1): Conv2d(64, 64, kernel_size=(3, 3), stride=(1, 1), padding=(1, 1))
        (Conv_2): Conv2d(96, 64, kernel_size=(1, 1), stride=(1, 1))
        (act): SiLU()
      )
      (58): GroupNorm(16, 64, eps=1e-06, affine=True)
      (59): Conv2d(64, 3, kernel_size=(3, 3), stride=(1, 1), padding=(1, 1))
      (60): ResnetBlockBigGANpp(
        (GroupNorm_0): GroupNorm(16, 64, eps=1e-06, affine=True)
        (Conv_0): Conv2d(64, 64, kernel_size=(3, 3), stride=(1, 1), padding=(1, 1))
        (Dense_0): Linear(in_features=64, out_features=64, bias=True)
        (GroupNorm_1): GroupNorm(16, 64, eps=1e-06, affine=True)
        (Dropout_0): Dropout(p=0.0, inplace=False)
        (Conv_1): Conv2d(64, 64, kernel_size=(3, 3), stride=(1, 1), padding=(1, 1))
        (Conv_2): Conv2d(64, 64, kernel_size=(1, 1), stride=(1, 1))
        (act): SiLU()
      )
      (61): ResnetBlockBigGANpp(
        (GroupNorm_0): GroupNorm(24, 96, eps=1e-06, affine=True)
        (Conv_0): Conv2d(96, 32, kernel_size=(3, 3), stride=(1, 1), padding=(1, 1))
        (Dense_0): Linear(in_features=64, out_features=32, bias=True)
        (GroupNorm_1): GroupNorm(8, 32, eps=1e-06, affine=True)
        (Dropout_0): Dropout(p=0.0, inplace=False)
        (Conv_1): Conv2d(32, 32, kernel_size=(3, 3), stride=(1, 1), padding=(1, 1))
        (Conv_2): Conv2d(96, 32, kernel_size=(1, 1), stride=(1, 1))
        (act): SiLU()
      )
      (62): ResnetBlockBigGANpp(
        (GroupNorm_0): GroupNorm(12, 48, eps=1e-06, affine=True)
        (Conv_0): Conv2d(48, 32, kernel_size=(3, 3), stride=(1, 1), padding=(1, 1))
        (Dense_0): Linear(in_features=64, out_features=32, bias=True)
        (GroupNorm_1): GroupNorm(8, 32, eps=1e-06, affine=True)
        (Dropout_0): Dropout(p=0.0, inplace=False)
        (Conv_1): Conv2d(32, 32, kernel_size=(3, 3), stride=(1, 1), padding=(1, 1))
        (Conv_2): Conv2d(48, 32, kernel_size=(1, 1), stride=(1, 1))
        (act): SiLU()
      )
      (63): GroupNorm(8, 32, eps=1e-06, affine=True)
      (64): Conv2d(32, 3, kernel_size=(3, 3), stride=(1, 1), padding=(1, 1))
      (65): ResnetBlockBigGANpp(
        (GroupNorm_0): GroupNorm(8, 32, eps=1e-06, affine=True)
        (Conv_0): Conv2d(32, 32, kernel_size=(3, 3), stride=(1, 1), padding=(1, 1))
        (Dense_0): Linear(in_features=64, out_features=32, bias=True)
        (GroupNorm_1): GroupNorm(8, 32, eps=1e-06, affine=True)
        (Dropout_0): Dropout(p=0.0, inplace=False)
        (Conv_1): Conv2d(32, 32, kernel_size=(3, 3), stride=(1, 1), padding=(1, 1))
        (Conv_2): Conv2d(32, 32, kernel_size=(1, 1), stride=(1, 1))
        (act): SiLU()
      )
      (66): ResnetBlockBigGANpp(
        (GroupNorm_0): GroupNorm(12, 48, eps=1e-06, affine=True)
        (Conv_0): Conv2d(48, 16, kernel_size=(3, 3), stride=(1, 1), padding=(1, 1))
        (Dense_0): Linear(in_features=64, out_features=16, bias=True)
        (GroupNorm_1): GroupNorm(4, 16, eps=1e-06, affine=True)
        (Dropout_0): Dropout(p=0.0, inplace=False)
        (Conv_1): Conv2d(16, 16, kernel_size=(3, 3), stride=(1, 1), padding=(1, 1))
        (Conv_2): Conv2d(48, 16, kernel_size=(1, 1), stride=(1, 1))
        (act): SiLU()
      )
      (67): ResnetBlockBigGANpp(
        (GroupNorm_0): GroupNorm(8, 32, eps=1e-06, affine=True)
        (Conv_0): Conv2d(32, 16, kernel_size=(3, 3), stride=(1, 1), padding=(1, 1))
        (Dense_0): Linear(in_features=64, out_features=16, bias=True)
        (GroupNorm_1): GroupNorm(4, 16, eps=1e-06, affine=True)
        (Dropout_0): Dropout(p=0.0, inplace=False)
        (Conv_1): Conv2d(16, 16, kernel_size=(3, 3), stride=(1, 1), padding=(1, 1))
        (Conv_2): Conv2d(32, 16, kernel_size=(1, 1), stride=(1, 1))
        (act): SiLU()
      )
      (68): GroupNorm(4, 16, eps=1e-06, affine=True)
      (69): Conv2d(16, 3, kernel_size=(3, 3), stride=(1, 1), padding=(1, 1))
    )
  )
)