Model Size: 16491139
DataParallel(
  (module): NCSNpp(
    (act): SiLU()
    (all_modules): ModuleList(
      (0): GaussianFourierProjection()
      (1): Linear(in_features=256, out_features=512, bias=True)
      (2): Linear(in_features=512, out_features=512, bias=True)
      (3): Conv2d(3, 128, kernel_size=(3, 3), stride=(1, 1), padding=(1, 1))
      (4-5): 2 x ResnetBlockBigGANpp(
        (GroupNorm_0): GroupNorm(32, 128, eps=1e-06, affine=True)
        (Conv_0): Conv2d(128, 128, kernel_size=(3, 3), stride=(1, 1), padding=(1, 1))
        (Dense_0): Linear(in_features=512, out_features=128, bias=True)
        (GroupNorm_1): GroupNorm(32, 128, eps=1e-06, affine=True)
        (Dropout_0): Dropout(p=0.1, inplace=False)
        (Conv_1): Conv2d(128, 128, kernel_size=(3, 3), stride=(1, 1), padding=(1, 1))
        (act): SiLU()
      )
      (6): ResnetBlockBigGANpp(
        (GroupNorm_0): GroupNorm(32, 128, eps=1e-06, affine=True)
        (Conv_0): Conv2d(128, 128, kernel_size=(3, 3), stride=(1, 1), padding=(1, 1))
        (Dense_0): Linear(in_features=512, out_features=128, bias=True)
        (GroupNorm_1): GroupNorm(32, 128, eps=1e-06, affine=True)
        (Dropout_0): Dropout(p=0.1, inplace=False)
        (Conv_1): Conv2d(128, 128, kernel_size=(3, 3), stride=(1, 1), padding=(1, 1))
        (Conv_2): Conv2d(128, 128, kernel_size=(1, 1), stride=(1, 1))
        (act): SiLU()
      )
      (7): Downsample(
        (Conv2d_0): Conv2d()
      )
      (8): ResnetBlockBigGANpp(
        (GroupNorm_0): GroupNorm(32, 128, eps=1e-06, affine=True)
        (Conv_0): Conv2d(128, 256, kernel_size=(3, 3), stride=(1, 1), padding=(1, 1))
        (Dense_0): Linear(in_features=512, out_features=256, bias=True)
        (GroupNorm_1): GroupNorm(32, 256, eps=1e-06, affine=True)
        (Dropout_0): Dropout(p=0.1, inplace=False)
        (Conv_1): Conv2d(256, 256, kernel_size=(3, 3), stride=(1, 1), padding=(1, 1))
        (Conv_2): Conv2d(128, 256, kernel_size=(1, 1), stride=(1, 1))
        (act): SiLU()
      )
      (9): AttnBlockpp(
        (GroupNorm_0): GroupNorm(32, 256, eps=1e-06, affine=True)
        (NIN_0): NIN()
        (NIN_1): NIN()
        (NIN_2): NIN()
        (NIN_3): NIN()
      )
      (10): ResnetBlockBigGANpp(
        (GroupNorm_0): GroupNorm(32, 256, eps=1e-06, affine=True)
        (Conv_0): Conv2d(256, 256, kernel_size=(3, 3), stride=(1, 1), padding=(1, 1))
        (Dense_0): Linear(in_features=512, out_features=256, bias=True)
        (GroupNorm_1): GroupNorm(32, 256, eps=1e-06, affine=True)
        (Dropout_0): Dropout(p=0.1, inplace=False)
        (Conv_1): Conv2d(256, 256, kernel_size=(3, 3), stride=(1, 1), padding=(1, 1))
        (act): SiLU()
      )
      (11): AttnBlockpp(
        (GroupNorm_0): GroupNorm(32, 256, eps=1e-06, affine=True)
        (NIN_0): NIN()
        (NIN_1): NIN()
        (NIN_2): NIN()
        (NIN_3): NIN()
      )
      (12): ResnetBlockBigGANpp(
        (GroupNorm_0): GroupNorm(32, 256, eps=1e-06, affine=True)
        (Conv_0): Conv2d(256, 256, kernel_size=(3, 3), stride=(1, 1), padding=(1, 1))
        (Dense_0): Linear(in_features=512, out_features=256, bias=True)
        (GroupNorm_1): GroupNorm(32, 256, eps=1e-06, affine=True)
        (Dropout_0): Dropout(p=0.1, inplace=False)
        (Conv_1): Conv2d(256, 256, kernel_size=(3, 3), stride=(1, 1), padding=(1, 1))
        (act): SiLU()
      )
      (13): AttnBlockpp(
        (GroupNorm_0): GroupNorm(32, 256, eps=1e-06, affine=True)
        (NIN_0): NIN()
        (NIN_1): NIN()
        (NIN_2): NIN()
        (NIN_3): NIN()
      )
      (14): ResnetBlockBigGANpp(
        (GroupNorm_0): GroupNorm(32, 256, eps=1e-06, affine=True)
        (Conv_0): Conv2d(256, 256, kernel_size=(3, 3), stride=(1, 1), padding=(1, 1))
        (Dense_0): Linear(in_features=512, out_features=256, bias=True)
        (GroupNorm_1): GroupNorm(32, 256, eps=1e-06, affine=True)
        (Dropout_0): Dropout(p=0.1, inplace=False)
        (Conv_1): Conv2d(256, 256, kernel_size=(3, 3), stride=(1, 1), padding=(1, 1))
        (act): SiLU()
      )
      (15-16): 2 x ResnetBlockBigGANpp(
        (GroupNorm_0): GroupNorm(32, 512, eps=1e-06, affine=True)
        (Conv_0): Conv2d(512, 256, kernel_size=(3, 3), stride=(1, 1), padding=(1, 1))
        (Dense_0): Linear(in_features=512, out_features=256, bias=True)
        (GroupNorm_1): GroupNorm(32, 256, eps=1e-06, affine=True)
        (Dropout_0): Dropout(p=0.1, inplace=False)
        (Conv_1): Conv2d(256, 256, kernel_size=(3, 3), stride=(1, 1), padding=(1, 1))
        (Conv_2): Conv2d(512, 256, kernel_size=(1, 1), stride=(1, 1))
        (act): SiLU()
      )
      (17): ResnetBlockBigGANpp(
        (GroupNorm_0): GroupNorm(32, 384, eps=1e-06, affine=True)
        (Conv_0): Conv2d(384, 256, kernel_size=(3, 3), stride=(1, 1), padding=(1, 1))
        (Dense_0): Linear(in_features=512, out_features=256, bias=True)
        (GroupNorm_1): GroupNorm(32, 256, eps=1e-06, affine=True)
        (Dropout_0): Dropout(p=0.1, inplace=False)
        (Conv_1): Conv2d(256, 256, kernel_size=(3, 3), stride=(1, 1), padding=(1, 1))
        (Conv_2): Conv2d(384, 256, kernel_size=(1, 1), stride=(1, 1))
        (act): SiLU()
      )
      (18): AttnBlockpp(
        (GroupNorm_0): GroupNorm(32, 256, eps=1e-06, affine=True)
        (NIN_0): NIN()
        (NIN_1): NIN()
        (NIN_2): NIN()
        (NIN_3): NIN()
      )
      (19): ResnetBlockBigGANpp(
        (GroupNorm_0): GroupNorm(32, 256, eps=1e-06, affine=True)
        (Conv_0): Conv2d(256, 256, kernel_size=(3, 3), stride=(1, 1), padding=(1, 1))
        (Dense_0): Linear(in_features=512, out_features=256, bias=True)
        (GroupNorm_1): GroupNorm(32, 256, eps=1e-06, affine=True)
        (Dropout_0): Dropout(p=0.1, inplace=False)
        (Conv_1): Conv2d(256, 256, kernel_size=(3, 3), stride=(1, 1), padding=(1, 1))
        (Conv_2): Conv2d(256, 256, kernel_size=(1, 1), stride=(1, 1))
        (act): SiLU()
      )
      (20): ResnetBlockBigGANpp(
        (GroupNorm_0): GroupNorm(32, 384, eps=1e-06, affine=True)
        (Conv_0): Conv2d(384, 128, kernel_size=(3, 3), stride=(1, 1), padding=(1, 1))
        (Dense_0): Linear(in_features=512, out_features=128, bias=True)
        (GroupNorm_1): GroupNorm(32, 128, eps=1e-06, affine=True)
        (Dropout_0): Dropout(p=0.1, inplace=False)
        (Conv_1): Conv2d(128, 128, kernel_size=(3, 3), stride=(1, 1), padding=(1, 1))
        (Conv_2): Conv2d(384, 128, kernel_size=(1, 1), stride=(1, 1))
        (act): SiLU()
      )
      (21-22): 2 x ResnetBlockBigGANpp(
        (GroupNorm_0): GroupNorm(32, 256, eps=1e-06, affine=True)
        (Conv_0): Conv2d(256, 128, kernel_size=(3, 3), stride=(1, 1), padding=(1, 1))
        (Dense_0): Linear(in_features=512, out_features=128, bias=True)
        (GroupNorm_1): GroupNorm(32, 128, eps=1e-06, affine=True)
        (Dropout_0): Dropout(p=0.1, inplace=False)
        (Conv_1): Conv2d(128, 128, kernel_size=(3, 3), stride=(1, 1), padding=(1, 1))
        (Conv_2): Conv2d(256, 128, kernel_size=(1, 1), stride=(1, 1))
        (act): SiLU()
      )
      (23): GroupNorm(32, 128, eps=1e-06, affine=True)
      (24): Conv2d(128, 3, kernel_size=(3, 3), stride=(1, 1), padding=(1, 1))
    )
  )
)