Model Size: 107586947
DataParallel(
  (module): NCSNpp(
    (act): SiLU()
    (all_modules): ModuleList(
      (0): GaussianFourierProjection()
      (1): Linear(in_features=256, out_features=512, bias=True)
      (2): Linear(in_features=512, out_features=512, bias=True)
      (3): Conv2d(3, 128, kernel_size=(3, 3), stride=(1, 1), padding=(1, 1))
      (4-11): 8 x ResnetBlockBigGANpp(
        (GroupNorm_0): GroupNorm(32, 128, eps=1e-06, affine=True)
        (Conv_0): Conv2d(128, 128, kernel_size=(3, 3), stride=(1, 1), padding=(1, 1))
        (Dense_0): Linear(in_features=512, out_features=128, bias=True)
        (GroupNorm_1): GroupNorm(32, 128, eps=1e-06, affine=True)
        (Dropout_0): Dropout(p=0.1, inplace=False)
        (Conv_1): Conv2d(128, 128, kernel_size=(3, 3), stride=(1, 1), padding=(1, 1))
        (act): SiLU()
      )
      (12): ResnetBlockBigGANpp(
        (GroupNorm_0): GroupNorm(32, 128, eps=1e-06, affine=True)
        (Conv_0): Conv2d(128, 128, kernel_size=(3, 3), stride=(1, 1), padding=(1, 1))
        (Dense_0): Linear(in_features=512, out_features=128, bias=True)
        (GroupNorm_1): GroupNorm(32, 128, eps=1e-06, affine=True)
        (Dropout_0): Dropout(p=0.1, inplace=False)
        (Conv_1): Conv2d(128, 128, kernel_size=(3, 3), stride=(1, 1), padding=(1, 1))
        (Conv_2): Conv2d(128, 128, kernel_size=(1, 1), stride=(1, 1))
        (act): SiLU()
      )
      (13): Downsample(
        (Conv2d_0): Conv2d()
      )
      (14): ResnetBlockBigGANpp(
        (GroupNorm_0): GroupNorm(32, 128, eps=1e-06, affine=True)
        (Conv_0): Conv2d(128, 256, kernel_size=(3, 3), stride=(1, 1), padding=(1, 1))
        (Dense_0): Linear(in_features=512, out_features=256, bias=True)
        (GroupNorm_1): GroupNorm(32, 256, eps=1e-06, affine=True)
        (Dropout_0): Dropout(p=0.1, inplace=False)
        (Conv_1): Conv2d(256, 256, kernel_size=(3, 3), stride=(1, 1), padding=(1, 1))
        (Conv_2): Conv2d(128, 256, kernel_size=(1, 1), stride=(1, 1))
        (act): SiLU()
      )
      (15): AttnBlockpp(
        (GroupNorm_0): GroupNorm(32, 256, eps=1e-06, affine=True)
        (NIN_0): NIN()
        (NIN_1): NIN()
        (NIN_2): NIN()
        (NIN_3): NIN()
      )
      (16): ResnetBlockBigGANpp(
        (GroupNorm_0): GroupNorm(32, 256, eps=1e-06, affine=True)
        (Conv_0): Conv2d(256, 256, kernel_size=(3, 3), stride=(1, 1), padding=(1, 1))
        (Dense_0): Linear(in_features=512, out_features=256, bias=True)
        (GroupNorm_1): GroupNorm(32, 256, eps=1e-06, affine=True)
        (Dropout_0): Dropout(p=0.1, inplace=False)
        (Conv_1): Conv2d(256, 256, kernel_size=(3, 3), stride=(1, 1), padding=(1, 1))
        (act): SiLU()
      )
      (17): AttnBlockpp(
        (GroupNorm_0): GroupNorm(32, 256, eps=1e-06, affine=True)
        (NIN_0): NIN()
        (NIN_1): NIN()
        (NIN_2): NIN()
        (NIN_3): NIN()
      )
      (18): ResnetBlockBigGANpp(
        (GroupNorm_0): GroupNorm(32, 256, eps=1e-06, affine=True)
        (Conv_0): Conv2d(256, 256, kernel_size=(3, 3), stride=(1, 1), padding=(1, 1))
        (Dense_0): Linear(in_features=512, out_features=256, bias=True)
        (GroupNorm_1): GroupNorm(32, 256, eps=1e-06, affine=True)
        (Dropout_0): Dropout(p=0.1, inplace=False)
        (Conv_1): Conv2d(256, 256, kernel_size=(3, 3), stride=(1, 1), padding=(1, 1))
        (act): SiLU()
      )
      (19): AttnBlockpp(
        (GroupNorm_0): GroupNorm(32, 256, eps=1e-06, affine=True)
        (NIN_0): NIN()
        (NIN_1): NIN()
        (NIN_2): NIN()
        (NIN_3): NIN()
      )
      (20): ResnetBlockBigGANpp(
        (GroupNorm_0): GroupNorm(32, 256, eps=1e-06, affine=True)
        (Conv_0): Conv2d(256, 256, kernel_size=(3, 3), stride=(1, 1), padding=(1, 1))
        (Dense_0): Linear(in_features=512, out_features=256, bias=True)
        (GroupNorm_1): GroupNorm(32, 256, eps=1e-06, affine=True)
        (Dropout_0): Dropout(p=0.1, inplace=False)
        (Conv_1): Conv2d(256, 256, kernel_size=(3, 3), stride=(1, 1), padding=(1, 1))
        (act): SiLU()
      )
      (21): AttnBlockpp(
        (GroupNorm_0): GroupNorm(32, 256, eps=1e-06, affine=True)
        (NIN_0): NIN()
        (NIN_1): NIN()
        (NIN_2): NIN()
        (NIN_3): NIN()
      )
      (22): ResnetBlockBigGANpp(
        (GroupNorm_0): GroupNorm(32, 256, eps=1e-06, affine=True)
        (Conv_0): Conv2d(256, 256, kernel_size=(3, 3), stride=(1, 1), padding=(1, 1))
        (Dense_0): Linear(in_features=512, out_features=256, bias=True)
        (GroupNorm_1): GroupNorm(32, 256, eps=1e-06, affine=True)
        (Dropout_0): Dropout(p=0.1, inplace=False)
        (Conv_1): Conv2d(256, 256, kernel_size=(3, 3), stride=(1, 1), padding=(1, 1))
        (act): SiLU()
      )
      (23): AttnBlockpp(
        (GroupNorm_0): GroupNorm(32, 256, eps=1e-06, affine=True)
        (NIN_0): NIN()
        (NIN_1): NIN()
        (NIN_2): NIN()
        (NIN_3): NIN()
      )
      (24): ResnetBlockBigGANpp(
        (GroupNorm_0): GroupNorm(32, 256, eps=1e-06, affine=True)
        (Conv_0): Conv2d(256, 256, kernel_size=(3, 3), stride=(1, 1), padding=(1, 1))
        (Dense_0): Linear(in_features=512, out_features=256, bias=True)
        (GroupNorm_1): GroupNorm(32, 256, eps=1e-06, affine=True)
        (Dropout_0): Dropout(p=0.1, inplace=False)
        (Conv_1): Conv2d(256, 256, kernel_size=(3, 3), stride=(1, 1), padding=(1, 1))
        (act): SiLU()
      )
      (25): AttnBlockpp(
        (GroupNorm_0): GroupNorm(32, 256, eps=1e-06, affine=True)
        (NIN_0): NIN()
        (NIN_1): NIN()
        (NIN_2): NIN()
        (NIN_3): NIN()
      )
      (26): ResnetBlockBigGANpp(
        (GroupNorm_0): GroupNorm(32, 256, eps=1e-06, affine=True)
        (Conv_0): Conv2d(256, 256, kernel_size=(3, 3), stride=(1, 1), padding=(1, 1))
        (Dense_0): Linear(in_features=512, out_features=256, bias=True)
        (GroupNorm_1): GroupNorm(32, 256, eps=1e-06, affine=True)
        (Dropout_0): Dropout(p=0.1, inplace=False)
        (Conv_1): Conv2d(256, 256, kernel_size=(3, 3), stride=(1, 1), padding=(1, 1))
        (act): SiLU()
      )
      (27): AttnBlockpp(
        (GroupNorm_0): GroupNorm(32, 256, eps=1e-06, affine=True)
        (NIN_0): NIN()
        (NIN_1): NIN()
        (NIN_2): NIN()
        (NIN_3): NIN()
      )
      (28): ResnetBlockBigGANpp(
        (GroupNorm_0): GroupNorm(32, 256, eps=1e-06, affine=True)
        (Conv_0): Conv2d(256, 256, kernel_size=(3, 3), stride=(1, 1), padding=(1, 1))
        (Dense_0): Linear(in_features=512, out_features=256, bias=True)
        (GroupNorm_1): GroupNorm(32, 256, eps=1e-06, affine=True)
        (Dropout_0): Dropout(p=0.1, inplace=False)
        (Conv_1): Conv2d(256, 256, kernel_size=(3, 3), stride=(1, 1), padding=(1, 1))
        (act): SiLU()
      )
      (29): AttnBlockpp(
        (GroupNorm_0): GroupNorm(32, 256, eps=1e-06, affine=True)
        (NIN_0): NIN()
        (NIN_1): NIN()
        (NIN_2): NIN()
        (NIN_3): NIN()
      )
      (30): ResnetBlockBigGANpp(
        (GroupNorm_0): GroupNorm(32, 256, eps=1e-06, affine=True)
        (Conv_0): Conv2d(256, 256, kernel_size=(3, 3), stride=(1, 1), padding=(1, 1))
        (Dense_0): Linear(in_features=512, out_features=256, bias=True)
        (GroupNorm_1): GroupNorm(32, 256, eps=1e-06, affine=True)
        (Dropout_0): Dropout(p=0.1, inplace=False)
        (Conv_1): Conv2d(256, 256, kernel_size=(3, 3), stride=(1, 1), padding=(1, 1))
        (Conv_2): Conv2d(256, 256, kernel_size=(1, 1), stride=(1, 1))
        (act): SiLU()
      )
      (31): Downsample(
        (Conv2d_0): Conv2d()
      )
      (32-39): 8 x ResnetBlockBigGANpp(
        (GroupNorm_0): GroupNorm(32, 256, eps=1e-06, affine=True)
        (Conv_0): Conv2d(256, 256, kernel_size=(3, 3), stride=(1, 1), padding=(1, 1))
        (Dense_0): Linear(in_features=512, out_features=256, bias=True)
        (GroupNorm_1): GroupNorm(32, 256, eps=1e-06, affine=True)
        (Dropout_0): Dropout(p=0.1, inplace=False)
        (Conv_1): Conv2d(256, 256, kernel_size=(3, 3), stride=(1, 1), padding=(1, 1))
        (act): SiLU()
      )
      (40): ResnetBlockBigGANpp(
        (GroupNorm_0): GroupNorm(32, 256, eps=1e-06, affine=True)
        (Conv_0): Conv2d(256, 256, kernel_size=(3, 3), stride=(1, 1), padding=(1, 1))
        (Dense_0): Linear(in_features=512, out_features=256, bias=True)
        (GroupNorm_1): GroupNorm(32, 256, eps=1e-06, affine=True)
        (Dropout_0): Dropout(p=0.1, inplace=False)
        (Conv_1): Conv2d(256, 256, kernel_size=(3, 3), stride=(1, 1), padding=(1, 1))
        (Conv_2): Conv2d(256, 256, kernel_size=(1, 1), stride=(1, 1))
        (act): SiLU()
      )
      (41): Downsample(
        (Conv2d_0): Conv2d()
      )
      (42-50): 9 x ResnetBlockBigGANpp(
        (GroupNorm_0): GroupNorm(32, 256, eps=1e-06, affine=True)
        (Conv_0): Conv2d(256, 256, kernel_size=(3, 3), stride=(1, 1), padding=(1, 1))
        (Dense_0): Linear(in_features=512, out_features=256, bias=True)
        (GroupNorm_1): GroupNorm(32, 256, eps=1e-06, affine=True)
        (Dropout_0): Dropout(p=0.1, inplace=False)
        (Conv_1): Conv2d(256, 256, kernel_size=(3, 3), stride=(1, 1), padding=(1, 1))
        (act): SiLU()
      )
      (51): AttnBlockpp(
        (GroupNorm_0): GroupNorm(32, 256, eps=1e-06, affine=True)
        (NIN_0): NIN()
        (NIN_1): NIN()
        (NIN_2): NIN()
        (NIN_3): NIN()
      )
      (52): ResnetBlockBigGANpp(
        (GroupNorm_0): GroupNorm(32, 256, eps=1e-06, affine=True)
        (Conv_0): Conv2d(256, 256, kernel_size=(3, 3), stride=(1, 1), padding=(1, 1))
        (Dense_0): Linear(in_features=512, out_features=256, bias=True)
        (GroupNorm_1): GroupNorm(32, 256, eps=1e-06, affine=True)
        (Dropout_0): Dropout(p=0.1, inplace=False)
        (Conv_1): Conv2d(256, 256, kernel_size=(3, 3), stride=(1, 1), padding=(1, 1))
        (act): SiLU()
      )
      (53-61): 9 x ResnetBlockBigGANpp(
        (GroupNorm_0): GroupNorm(32, 512, eps=1e-06, affine=True)
        (Conv_0): Conv2d(512, 256, kernel_size=(3, 3), stride=(1, 1), padding=(1, 1))
        (Dense_0): Linear(in_features=512, out_features=256, bias=True)
        (GroupNorm_1): GroupNorm(32, 256, eps=1e-06, affine=True)
        (Dropout_0): Dropout(p=0.1, inplace=False)
        (Conv_1): Conv2d(256, 256, kernel_size=(3, 3), stride=(1, 1), padding=(1, 1))
        (Conv_2): Conv2d(512, 256, kernel_size=(1, 1), stride=(1, 1))
        (act): SiLU()
      )
      (62): ResnetBlockBigGANpp(
        (GroupNorm_0): GroupNorm(32, 256, eps=1e-06, affine=True)
        (Conv_0): Conv2d(256, 256, kernel_size=(3, 3), stride=(1, 1), padding=(1, 1))
        (Dense_0): Linear(in_features=512, out_features=256, bias=True)
        (GroupNorm_1): GroupNorm(32, 256, eps=1e-06, affine=True)
        (Dropout_0): Dropout(p=0.1, inplace=False)
        (Conv_1): Conv2d(256, 256, kernel_size=(3, 3), stride=(1, 1), padding=(1, 1))
        (Conv_2): Conv2d(256, 256, kernel_size=(1, 1), stride=(1, 1))
        (act): SiLU()
      )
      (63-71): 9 x ResnetBlockBigGANpp(
        (GroupNorm_0): GroupNorm(32, 512, eps=1e-06, affine=True)
        (Conv_0): Conv2d(512, 256, kernel_size=(3, 3), stride=(1, 1), padding=(1, 1))
        (Dense_0): Linear(in_features=512, out_features=256, bias=True)
        (GroupNorm_1): GroupNorm(32, 256, eps=1e-06, affine=True)
        (Dropout_0): Dropout(p=0.1, inplace=False)
        (Conv_1): Conv2d(256, 256, kernel_size=(3, 3), stride=(1, 1), padding=(1, 1))
        (Conv_2): Conv2d(512, 256, kernel_size=(1, 1), stride=(1, 1))
        (act): SiLU()
      )
      (72): ResnetBlockBigGANpp(
        (GroupNorm_0): GroupNorm(32, 256, eps=1e-06, affine=True)
        (Conv_0): Conv2d(256, 256, kernel_size=(3, 3), stride=(1, 1), padding=(1, 1))
        (Dense_0): Linear(in_features=512, out_features=256, bias=True)
        (GroupNorm_1): GroupNorm(32, 256, eps=1e-06, affine=True)
        (Dropout_0): Dropout(p=0.1, inplace=False)
        (Conv_1): Conv2d(256, 256, kernel_size=(3, 3), stride=(1, 1), padding=(1, 1))
        (Conv_2): Conv2d(256, 256, kernel_size=(1, 1), stride=(1, 1))
        (act): SiLU()
      )
      (73-80): 8 x ResnetBlockBigGANpp(
        (GroupNorm_0): GroupNorm(32, 512, eps=1e-06, affine=True)
        (Conv_0): Conv2d(512, 256, kernel_size=(3, 3), stride=(1, 1), padding=(1, 1))
        (Dense_0): Linear(in_features=512, out_features=256, bias=True)
        (GroupNorm_1): GroupNorm(32, 256, eps=1e-06, affine=True)
        (Dropout_0): Dropout(p=0.1, inplace=False)
        (Conv_1): Conv2d(256, 256, kernel_size=(3, 3), stride=(1, 1), padding=(1, 1))
        (Conv_2): Conv2d(512, 256, kernel_size=(1, 1), stride=(1, 1))
        (act): SiLU()
      )
      (81): ResnetBlockBigGANpp(
        (GroupNorm_0): GroupNorm(32, 384, eps=1e-06, affine=True)
        (Conv_0): Conv2d(384, 256, kernel_size=(3, 3), stride=(1, 1), padding=(1, 1))
        (Dense_0): Linear(in_features=512, out_features=256, bias=True)
        (GroupNorm_1): GroupNorm(32, 256, eps=1e-06, affine=True)
        (Dropout_0): Dropout(p=0.1, inplace=False)
        (Conv_1): Conv2d(256, 256, kernel_size=(3, 3), stride=(1, 1), padding=(1, 1))
        (Conv_2): Conv2d(384, 256, kernel_size=(1, 1), stride=(1, 1))
        (act): SiLU()
      )
      (82): AttnBlockpp(
        (GroupNorm_0): GroupNorm(32, 256, eps=1e-06, affine=True)
        (NIN_0): NIN()
        (NIN_1): NIN()
        (NIN_2): NIN()
        (NIN_3): NIN()
      )
      (83): ResnetBlockBigGANpp(
        (GroupNorm_0): GroupNorm(32, 256, eps=1e-06, affine=True)
        (Conv_0): Conv2d(256, 256, kernel_size=(3, 3), stride=(1, 1), padding=(1, 1))
        (Dense_0): Linear(in_features=512, out_features=256, bias=True)
        (GroupNorm_1): GroupNorm(32, 256, eps=1e-06, affine=True)
        (Dropout_0): Dropout(p=0.1, inplace=False)
        (Conv_1): Conv2d(256, 256, kernel_size=(3, 3), stride=(1, 1), padding=(1, 1))
        (Conv_2): Conv2d(256, 256, kernel_size=(1, 1), stride=(1, 1))
        (act): SiLU()
      )
      (84): ResnetBlockBigGANpp(
        (GroupNorm_0): GroupNorm(32, 384, eps=1e-06, affine=True)
        (Conv_0): Conv2d(384, 128, kernel_size=(3, 3), stride=(1, 1), padding=(1, 1))
        (Dense_0): Linear(in_features=512, out_features=128, bias=True)
        (GroupNorm_1): GroupNorm(32, 128, eps=1e-06, affine=True)
        (Dropout_0): Dropout(p=0.1, inplace=False)
        (Conv_1): Conv2d(128, 128, kernel_size=(3, 3), stride=(1, 1), padding=(1, 1))
        (Conv_2): Conv2d(384, 128, kernel_size=(1, 1), stride=(1, 1))
        (act): SiLU()
      )
      (85-92): 8 x ResnetBlockBigGANpp(
        (GroupNorm_0): GroupNorm(32, 256, eps=1e-06, affine=True)
        (Conv_0): Conv2d(256, 128, kernel_size=(3, 3), stride=(1, 1), padding=(1, 1))
        (Dense_0): Linear(in_features=512, out_features=128, bias=True)
        (GroupNorm_1): GroupNorm(32, 128, eps=1e-06, affine=True)
        (Dropout_0): Dropout(p=0.1, inplace=False)
        (Conv_1): Conv2d(128, 128, kernel_size=(3, 3), stride=(1, 1), padding=(1, 1))
        (Conv_2): Conv2d(256, 128, kernel_size=(1, 1), stride=(1, 1))
        (act): SiLU()
      )
      (93): GroupNorm(32, 128, eps=1e-06, affine=True)
      (94): Conv2d(128, 3, kernel_size=(3, 3), stride=(1, 1), padding=(1, 1))
    )
  )
)